weights/Layer0w.npy (npy, 50304 bytes, 1 tensors)

array f8 [14, 14, 1, 32]
00000000: 08e2 0ae0 eee2 b33f 64f9 758a a6ba 8abf
00000010: 2644 9392 0061 a1bf a0a5 3142 a091 bf3f
00000020: b27e 6ec4 e124 c83f 4093 8c42 a021 89bf
00000030: 6f01 6daf 12ac 93bf 2035 53a4 e698 ae3f
00000040: 5fad 7999 5e7f b2bf ed68 77bc 37bd 9f3f
00000050: b354 43bf f291 c13f 4c77 c975 6f84 963f
00000060: 97a0 f410 b1ec a63f 47ca 0040 a275 90bf
00000070: 8475 fae2 70f0 ae3f 8b9d c98e 1ddf c0bf
00000080: b71b ba1b 4ae7 80bf 07de 3c15 79d3 bbbf
00000090: 8b56 8af3 9376 953f 5031 3359 8d43 b2bf
000000a0: 3def f9d7 ce2e cc3f c78a 4aaf be73 b0bf
000000b0: 68ea 0e8a c279 923f 2c5a 4c1b ae48 a0bf
000000c0: a41e d9fb 0ba2 c83f 6166 1610 f712 bd3f
000000d0: c4f1 33c1 75fc bd3f 1924 29be ca7b 94bf
000000e0: 77bd 69fb c7af 7d3f 8df6 da7e 7f38 c0bf
000000f0: 86c6 2bac 74ed 96bf e846 1413 564c a63f
00000100: 3727 d66f 4898 c3bf b037 07ac 6b06 b2bf
00000110: f749 7652 944f ca3f 67cf d61a 38d4 babf
00000120: bdd7 0441 45c5 c9bf a6c5 902e 03a1 c5bf
00000130: f7f0 5223 aa19 b2bf a0ea 7448 9a57 b93f
00000140: 181a 29e1 d331 b33f 3162 ee7e 6164 cc3f
00000150: d69c 8b80 939b b93f c730 3502 b69f a9bf
00000160: 8258 edfb 6609 c63f 818d 26de c0bd 88bf
00000170: 9f3a 454e 8a70 923f c646 2059 7a9a 95bf
00000180: c31c 9988 488f 9dbf ab42 6983 b642 973f
00000190: 58c6 7b49 ab14 d33f 7953 89d6 9709 b8bf
000001a0: ba90 19c0 e624 b33f 9e93 9978 bbf8 a43f
000001b0: a837 6e47 6a9f 8b3f dd4c d2ec ba70 863f
000001c0: ddf3 a2c3 9096 b33f ca8f 70f9 e2ba abbf
000001d0: 1ffb c644 5095 b43f 53dc c7bb a50c 69bf
000001e0: 4fd4 1597 0e94 a73f 59ce 416c a84c c13f
000001f0: 85bb 11e0 61b9 cdbf 03be 1cc1 bf95 a63f
00000200: 4f08 4a7f 3d44 97bf ce6a 0296 cf1c 8cbf
00000210: 843d 6ab0 2593 843f 58e9 8365 07db c1bf
00000220: b9eb f132 b7eb 963f f863 b9f3 4637 bebf
00000230: d2ad 7240 7fa3 a93f c955 4716 f91b 933f
00000240: 06fc 814e 5fb7 8c3f a9be a811 fdf0 babf
00000250: 4179 c866 ab4d bcbf 0031 48a4 bf24 99bf
00000260: bfb5 1091 1198 c0bf 9c10 c2ab d1fe 8e3f
00000270: 22b4 ceaf 76db ca3f 1ba4 2344 3052 b1bf
00000280: d159 0d1f 3eaf c7bf 5f13 9588 757f 91bf
00000290: 5dbc 4468 82a9 b7bf 0c2e 59ab f31b b9bf
000002a0: dfee f896 ab6f a6bf 96c5 5e2f 3e97 a43f
000002b0: a84f e085 7bbf 89bf 331b 1d0b c55d b8bf
000002c0: 1708 14a8 6fac a93f 86c3 9845 c522 b53f
000002d0: 6cf2 40ec 7d82 c93f cc53 1091 34c6 c53f
000002e0: 596e 1f24 a4ca bb3f 9955 6a3c 2436 8b3f
000002f0: dc72 3c16 f103 b43f ae34 959f 5445 a83f
00000300: 49ba ae56 2e1f 92bf 736e fefc 98cd aabf
00000310: 626d 1ff8 81ab b53f 3e10 52ab f5ce 41bf
00000320: ee6d 310c 45c6 acbf a3bb ba3a b5de c3bf
00000330: 5b37 8752 3073 9cbf d623 044c dd15 933f
00000340: 350e 44e6 b24a a7bf 98e0 7ab0 6855 c4bf
00000350: afcd 1616 793f 383f 14cc 0e80 1224 babf
00000360: 511a d2de 6c35 8bbf 53d3 5e71 9d44 ac3f
00000370: f3fa c161 6de3 b83f 7599 5b65 c312 bc3f
00000380: 143d e3d4 cd5f ca3f 2959 d9ff e98e af3f
00000390: 99a1 843d 82a5 ab3f cb4f 8b70 d2a4 9fbf
000003a0: 60b5 a912 7713 bd3f 46c8 a223 5b21 bebf
000003b0: c78b a7c1 68cc a3bf f6aa db99 f7c2 b03f
000003c0: f761 1402 3b30 acbf 7be3 0c93 6657 863f
000003d0: 00ab a8a1 fc9e c6bf 9677 ba40 7ce3 a8bf
000003e0: 4fdb d19d 88af c13f 4ea8 d6ab 0a53 bfbf
000003f0: d81f 8b52 3605 b0bf 6f0f 62d0 8a59 a2bf
00000400: 2294 e0da 1dfb 50bf 47ae 0085 3cfc b7bf
00000410: 1ff5 6778 365e ce3f 8a15 d67e 9fff b83f
00000420: b664 3cca 533b a1bf 0dcf 8c38 1491 a5bf
00000430: 8c81 40f7 3607 ba3f aa82 d021 061e c1bf
00000440: a691 b1ed 24b5 953f 6bdd be70 db43 ab3f
00000450: 863b 3d22 ce5a cc3f f0eb cf26 2426 c23f
00000460: 82a6 c892 91bf c43f 1458 2e7a c212 a2bf
00000470: cbcd fa1f d807 c23f 37f4 0d36 cf99 a0bf
00000480: eb6a c1f7 3f3f b23f 6b23 96f7 fa7c a4bf
00000490: 2d2f 0272 066f b3bf f267 3664 9e74 a1bf
000004a0: 6b44 f72d 6ea5 a13f 9669 38eb 5f51 c9bf
000004b0: 9088 ae37 bd42 4f3f 99c2 325f b590 b23f
000004c0: 0c3b 5be0 ceac bdbf ddad ed03 c25a 823f
000004d0: 654e 90df 0567 c43f 7fc9 da70 61cc 923f
000004e0: e309 f603 a9c1 68bf 49a9 7acb 3b0b c7bf
000004f0: 60de cacd b506 aa3f 92a6 40de 96c8 a4bf
00000500: 4fa5 c831 88b9 97bf 447b 21e3 76ff 5e3f
00000510: 6abe 9847 7eaa 8d3f d386 b514 2b17 92bf
00000520: 3f0e 38a0 54a7 a5bf ea00 d517 755f a6bf
00000530: 4423 4d82 a13c a5bf e973 5f38 cea6 ccbf
00000540: cb75 7391 bdad b4bf 63e2 7e0d 8d84 a4bf
00000550: 56b5 52e7 979d b13f ab9f 7fd4 8dbd 7c3f
00000560: 744e 83f3 e36a 913f ce91 f7b0 7aa4 ad3f
00000570: ac01 c7c5 ff03 ae3f 936e 1561 1f17 c33f
00000580: 8104 cfe7 8575 a83f f15a 9848 1bfd 99bf
00000590: 32e9 8d04 e84f cabf 4a66 ccbe 8b3c bbbf
000005a0: 20ba 4066 6025 ba3f 753c 07c5 84f0 bf3f
000005b0: 6751 09a3 6635 8dbf 20fa e374 95e6 aebf
000005c0: 5057 7bd6 6f74 c03f fb4d d774 94db cbbf
000005d0: e175 b503 95a9 cf3f aa8e c30c 5032 983f
000005e0: 7262 93ae 1d15 b53f a7f9 79fa 9f02 bc3f
000005f0: e62d e993 e991 b2bf 6f21 5e0f eb9f b93f
00000600: 7b19 9e52 45e1 973f a312 54e9 77fa c33f
00000610: f806 0c0f 2401 b23f 6692 adcc fe93 ac3f
00000620: 2824 0b25 42d1 a83f 1006 589c 53f2 a3bf
00000630: 2446 50b8 764d 813f 72be 8458 8193 ab3f
00000640: af1c b939 c86c a1bf 4267 8509 9c8c b23f
00000650: a67f 682b b261 a6bf 1de2 05b3 e34d 5a3f
00000660: 75e5 cfe2 8d09 b03f d506 00e7 28eb 873f
00000670: 356e 2f26 ffe6 a03f 4b23 854a 6a27 c0bf
00000680: ce75 be83 c9ef c3bf af5f 7b94 0856 b13f
00000690: e39c 7956 bfaf a73f 913b ace0 6a99 a63f
000006a0: 1c32 24c4 b0cd c13f adb0 a555 a2d9 bebf
000006b0: c0d7 a683 eef4 b8bf e100 6f9c 24b8 acbf
000006c0: c062 f58e 3734 ca3f 1ae8 495d 5308 c6bf
000006d0: 55e0 7f81 b7c5 9dbf de3e ad5c e026 9cbf
000006e0: 46b5 6ebd d2c0 c03f 5460 3d7b 7afe b4bf
000006f0: a20e 6075 6d3b 95bf e6ec de4d 546b be3f
00000700: 5ac4 bcb1 f3f3 be3f 78f7 6bea 14bb c23f
00000710: be06 f767 2f12 bd3f 8292 464d 161f 923f
00000720: a734 e75c 9ae1 76bf 018d a1a9 d425 c03f
00000730: 7b1d 517d 6ee2 c5bf 5175 7a89 bb25 c0bf
00000740: bdc3 4360 4a92 75bf a0f4 2849 29cb c0bf
00000750: a92a b7ec 9001 bebf 8e37 6b62 5eeb 993f
00000760: 05a0 2a7e 1abd 9bbf 77d0 37ff ebcb b7bf
00000770: 53fc 5bac 1405 99bf 9481 7402 d224 a3bf
00000780: d931 e924 0ade aebf 46a9 cfd0 f697 833f
00000790: 73c3 406a 854f c1bf f9e1 e54a 2d86 973f
000007a0: 34fb 7b08 3980 c83f 8d63 8d77 ad29 67bf
000007b0: e5c5 f652 1f06 a1bf b7ad 111d 0358 c5bf
000007c0: 32dd 98ab 2347 b73f fb01 7fd4 7c90 9f3f
000007d0: fdfa c586 d544 d0bf 8103 f898 30c8 a8bf
000007e0: 30fc dd90 0902 6f3f 0698 b7f7 7f2a b2bf
000007f0: f1ec e612 906a c3bf 1afd 4372 70dd b1bf
0.07768147439754369 -0.013051320171822929 -0.03394319333313715 0.1233158265692027 0.1886255463732503 -0.01227116778461268 -0.019211093861714653 0.05976029163285035
-0.07225600478129966 0.0309952458172597 0.13726648653997628 0.02198957592405941 0.04477456409432639 -0.016073737293661485 0.06042816897136574 -0.13180894348191105
-0.008253649684105342 -0.10869557159900732 0.02096015142395528 -0.07134326389058754 0.22017846627920248 -0.06426612643785311 0.018042602230460864 -0.031804505188280124
0.1924452762343566 0.11357063429604743 0.1171334835707461 -0.020003478867042988 0.007247716121681839 -0.1267241830263867 -0.02239019680832268 0.04355114920521236
-0.15308480702179292 -0.07041047048480098 0.20555357004612038 -0.10480070739032286 -0.20133271860839655 -0.16897620938975172 -0.07070411074068149 0.0989929606338742
0.07497905966838692 0.2218133802205258 0.10003015411676883 -0.05004662301016221 0.17216193486337167 -0.012080675868509473 0.018007432009933152 -0.021097099008392538
-0.028866895043645934 0.02271542718000556 0.29813654113886434 -0.09389637935357865 0.07478182020128346 0.040960176917713684 0.013487654023062692 0.010957203247278386
0.07651619697840269 -0.05416020674627438 0.08040334395535041 -0.0030577885611325155 0.046051460211778854 0.13515191350926406 -0.232219919594595 0.04411124450995987
-0.022721253294101292 -0.013726827397751686 0.010046286054857807 -0.1394967313461375 0.022383558735309814 -0.11803096247002987 0.05007550870626755 0.018661396012097407
0.014021629889837694 -0.10523969346172159 -0.11056014308312447 -0.02455424728582134 -0.12964076598420424 0.015134466222896763 0.209822498172259 -0.06766034759097332
-0.1850354816076121 -0.017087780438731822 -0.09243025823228508 -0.0980827611285166 -0.04382072656559698 0.04021639183282415 -0.012572255156591286 -0.09518081208544231
0.05014370848404342 0.082561807147398 0.19929479633164549 0.17011124690239254 0.1085608089628577 0.01328686055539201 0.07818514626383027 0.04740395019562392
-0.017697071114236605 -0.052349835284272304 0.0846482496994461 -0.0005434703404181352 -0.05620017789689401 -0.15523400657317862 -0.027783160245056986 0.018638093723925518
-0.04549178181516959 -0.1588564740866374 0.0003699942227186293 -0.1021129191056363 -0.013285494375179814 0.05521099099079287 0.09722026478446448 0.10966130470806042
0.2060487069597704 0.061637222749299454 0.05399710656121499 -0.03090218364634704 0.11357826429021634 -0.11769647235885924 -0.038668893470251535 0.06547496324825972
-0.055055469516620485 0.010908891070003915 -0.1767268933629893 -0.048610575581945856 0.13816936212580308 -0.12236086554790512 -0.06257953181477605 -0.03583940309275035
-0.0010364333679799905 -0.09369257208953129 0.23725014571383782 0.09765049788082628 -0.03365575641346068 -0.04212248983676945 0.10167258774209226 -0.133728758345588
0.021198822982471242 0.053252084267508014 0.22152115508876252 0.14178897757651 0.1620962111203888 -0.03529937497584981 0.14086438714512747 -0.03242347273678841
0.07127761648863966 -0.04001602432533143 -0.07591285975848612 -0.03409285519883544 0.03446525870425251 -0.19779585824364848 0.0009540008462532047 0.07252057623078158
-0.1159180925126117 0.008962169403921411 0.15939401069828132 0.01835777522382775 -0.003022031887384134 -0.18003032145981937 0.05083244454493463 -0.04059287512820932
-0.02316868594985993 0.001891962147531693 0.01448534637447026 -0.017666504992468312 -0.042292255933741967 -0.04369703212660332 -0.04147820201484945 -0.22384050133305713
-0.08077606965112875 -0.04007378377668116 0.06881093404327507 0.00701671030399346 0.017009317148064487 0.05789550218813454 0.058624260800118705 0.1491431449929804
0.04777162985511386 -0.025379587465148516 -0.2055635473478304 -0.1063926068130964 0.1021328210488055 0.1247637730623284 -0.014262010431743645 -0.06035296489607256
0.1285533711695117 -0.21763854699257465 0.2473627346143266 0.023629427699133267 0.08235345375158845 0.109415053035241 -0.07253894673447511 0.10009640813053065
0.023320277373863867 0.15608118908871402 0.07032990805967276 0.055816614613637225 0.04847151472274219 -0.03895818027013942 0.0084485316274679 0.05385975080059503
-0.034033066793705095 0.0724580310101404 -0.04371411113629557 0.0016054843545970706 0.0626457861652819 0.011679000424922684 0.033012364779747484 -0.126202856432679
-0.15575522358714838 0.06771901726767625 0.04626272135356559 0.04413923256480879 0.13908967568603792 -0.12050833312031513 -0.09748736108926348 -0.05609239968862468
0.20471853714368216 -0.17212907843696784 -0.02907454231169056 -0.02749205175069746 0.13088449716216582 -0.08200803288252817 -0.0207345106973792 0.11882521535055765
0.12090991105357443 0.14633428045629748 0.11355873382765488 0.017696712938816812 -0.005586245517816091 0.1261545017506265 -0.1709726440333091 -0.12615150654611765
-0.005266466647513232 -0.1311999900080183 -0.11721139697253115 0.025311922795303192 -0.02708856005725126 -0.09295535069378667 -0.024433444042184792 -0.03739029197663793
-0.06028777790615764 0.009567192313586614 -0.13523929298528578 0.022972781845483656 0.1914130488803153 -0.0028274906184546146 -0.03324983489745729 -0.16674841803920312
0.09092925013907374 0.030824614019140367 -0.2542012992998222 -0.048402327225637094 0.003785151179669842 -0.07096099660665808 -0.15168953822089962 -0.06978514470755606
