weights/Layer3w.npy (npy, 32896 bytes, 1 tensors)

array f8 [1, 1, 32, 128]
000000 33 79 a0 56 3e eb 61 3f 98 9f e9 89 7a ef af 3f
       0.002187368158970271 0.06237395223143877
000010 a8 14 b2 23 7c 3f b6 bf 4c 58 83 27 90 1d b6 bf
       -0.08690620299792562 -0.08638859715151276
000020 29 bd 12 b4 6c e4 a5 3f 5c 02 f2 cd 8c 7c cc bf
       0.04275836656722227 -0.2225509648888132
000030 f4 93 db a1 15 07 c6 bf cc f5 b6 e6 f5 57 97 bf
       -0.17209120181283277 -0.022796480375964198
000040 f7 8f 36 c0 75 d5 8c 3f 03 ac 46 a1 59 84 a1 3f
       0.014079017570857373 0.03421287625982219
000050 4a 6e d2 1b 86 dc 93 3f 39 99 94 46 4b 63 ad 3f
       0.01939591927349075 0.05739817844942014
000060 21 76 23 37 bd 21 b6 bf d2 c0 44 b4 41 aa b5 bf
       -0.08645231815486244 -0.08462916041458193
000070 6e 3d fa 07 4a 37 c3 bf 28 ac 54 12 17 89 ab bf
       -0.1501247919991146 -0.05378028963817655
000080 69 90 eb ee c6 0a b4 bf 10 e4 71 24 39 91 95 bf
       -0.07828944523822802 -0.021061795091075253
000090 82 e6 11 97 63 25 af bf fe f4 63 99 8c ea 56 3f
       -0.0608321306144264 0.0013986943282014437
0000a0 d8 d3 3d 00 b6 d9 b2 bf a3 e1 09 0a 18 33 c3 bf
       -0.07363450532814342 -0.14999676218191124
0000b0 b5 a2 c9 f4 2f cf 96 3f f9 6b ee 09 8b f1 75 3f
       0.02227473193707637 0.005357306595125338
0000c0 ce e9 48 67 2a f6 99 3f b2 9e 11 5a c9 8c b7 bf
       0.02535310988808153 -0.09199198197313299
0000d0 d6 50 82 91 f8 63 c0 3f 13 d7 66 24 0e 8d 86 bf
       0.12805087189611325 -0.011011229024784385
0000e0 f3 32 b8 c6 ae 70 aa bf 68 33 fe 7a d3 d2 aa 3f
       -0.0516409509255932 0.05238972545985271
0000f0 03 ee b3 74 3c ba c5 3f a3 cf 5f c1 51 db 84 bf
       0.16974597643262265 -0.010183943475546025
000100 29 79 0a a7 fd 28 c4 bf fb 66 c7 3d 57 fa a1 3f
       -0.15750094085974212 0.035113073626872514
000110 f4 63 1a 4c 5b 89 ad 3f 6c d2 17 ea 5b de bc 3f
       0.05768857292168397 0.11276792969858612
000120 b8 60 e4 bf ff fd 9c 3f 66 47 11 64 c6 11 9d 3f
       0.028312679373897892 0.028388118608126865
000130 8d 3a cb 38 c6 21 a6 bf e8 cf 75 1e 8e 8d c3 bf
       -0.043226427491039755 -0.15275742041887885
000140 53 c3 8a 28 3b 09 95 bf b4 fd 20 6e 6d 2d a1 3f
       -0.02054302630375855 0.03354970902773449
000150 af 2b 68 bd 86 e6 a7 3f 86 a5 86 50 d8 61 a1 bf
       0.0466806513032546 -0.03394962294562291
000160 c9 64 19 e0 a7 ac c0 3f 07 c7 ff b4 b0 49 6f 3f
       0.1302690357431742 0.0038193179425370957
000170 0d 1b a0 c2 07 09 8b bf 82 82 5c da 7e 80 ca bf
       -0.013200817706104507 -0.20704637205291837
000180 5d 1c a1 26 fd 08 92 bf af c3 dc 56 88 b2 a5 bf
       -0.01761241482043051 -0.042377720454516925
000190 68 b5 d1 e1 b6 89 b4 bf 1e 01 b8 40 e8 a5 62 bf
       -0.08022635472453532 -0.002276376360669143
0001a0 51 e2 b3 9c 61 03 58 3f a9 c7 b0 73 b8 b4 97 3f
       0.0014656499141080424 0.023150331555548274
0001b0 58 71 cc 95 d6 02 b7 bf 78 69 1c 81 12 fe b2 bf
       -0.08988705784981244 -0.07418933536647454
0001c0 51 87 7e 4b 1b c5 c2 bf b1 cc f0 de f5 08 bc 3f
       -0.14664021669619356 0.1095117253578788
0001d0 d6 90 3c e6 cd 98 b1 bf 2e aa 38 51 02 6e c2 bf
       -0.06873785849581124 -0.14398220983396598
0001e0 a8 96 24 05 59 15 98 bf 1f 95 92 00 bb b0 c0 bf
       -0.023518935145281944 -0.13039338615377802
0001f0 17 a2 61 5b 2c a3 a3 bf 9d cb 2e 85 a4 3a b0 bf
       -0.03835428824897152 -0.0633948159364039
000200 30 dc f8 97 13 20 b7 3f b0 f4 d8 0a d2 2d c3 bf
       0.09033319912201487 -0.14983583001768386
000210 98 87 be f4 43 3c 92 bf 6d fd 08 09 6c 97 ab 3f
       -0.01780801945972818 0.05388963327686267
000220 cd 1a d6 a8 5e b4 90 3f e8 d6 7a fc 84 45 b1 bf
       0.016313056044533526 -0.0674670330434669
000230 26 26 8a a7 3b 35 b1 3f 71 ab bc 60 97 0a c7 bf
       0.06721852150271754 -0.18001072143064392
000240 84 e6 e1 09 ad 0b c1 bf 1d 6c 5e 7d df ea b5 3f
       -0.1331688211683294 0.08561512766611697
000250 f1 e4 07 73 e3 76 a9 3f d2 b2 c7 68 f2 e3 bc 3f
       0.04973517207322143 0.11285319383723483
000260 db ea a7 a2 c6 45 63 bf fa 23 db f7 ce 1e 91 3f
       -0.0023526076886331965 0.016719087484293717
000270 7e ef 1f 4d ac ac a6 bf d3 20 30 56 e8 6c 6d 3f
       -0.044286140837328056 0.0035919702363608
000280 36 fb 00 de 54 35 9c 3f a8 0e 20 1a d2 5d a8 bf
       0.02754719357494225 -0.047590795220483983
000290 6f c1 ba de 2f 11 9b bf 1b 73 a1 95 f6 60 84 3f
       -0.026432750672655766 0.00995056766640228
0002a0 49 7b 13 70 9f 78 6b bf 8e e7 28 c3 80 cd 80 3f
       -0.0033534158725240554 0.008204465823940212
0002b0 2f 77 b8 fb 27 41 9d 3f b4 bd 3d 0b 65 a8 b7 3f
       0.028568863619617687 0.09241324924891253
0002c0 03 7e 02 a3 21 4f c2 3f 6a 35 8b d0 8b 40 93 3f
       0.14303989848575335 0.018800911525251797
0002d0 b7 de da 67 60 a4 84 3f 36 71 77 8c 65 a5 7e 3f
       0.010079148454095728 0.007481953310584813
0002e0 e7 ff 54 58 14 1a cb 3f 13 d2 19 60 f4 1d b7 3f
       0.2117333823498477 0.09030082079136319
0002f0 6b b0 af 23 cb f0 c0 3f d2 5b 1c 93 89 43 83 3f
       0.13234843485350054 0.009406161119427301
000300 0d e8 00 ea a0 33 c8 3f 6e 29 57 cd a9 ff 7f 3f
       0.18907557893709317 0.007812178887841232
000310 39 f4 8b f7 04 d7 c0 bf 75 83 f9 1c 05 72 c1 bf
       -0.131561871406946 -0.13629211344507622
000320 82 50 f9 76 96 1b 9a 3f c0 84 7e e3 0a c6 86 3f
       0.02549586392554249 0.011119923656055852
000330 8a 45 03 c8 af a2 c1 3f c3 92 8f 2e b1 04 a2 3f
       0.13777730242012992 0.035192048009582
000340 57 f5 a6 b7 c3 44 87 bf 8f d8 67 15 ac 7a a2 bf
       -0.011361626665229592 -0.036092164624208604
000350 44 69 ed 36 55 94 bd bf 1d 6a ad 38 e2 d7 cb bf
       -0.11554462996483489 -0.2175257469887847
000360 34 d3 21 3a 58 f8 af 3f cb 06 1d f5 1a 38 b9 3f
       0.06244159421559062 0.09851234897817134
000370 fb 17 c8 1b 41 94 c2 bf de b2 ff 5c 88 68 b2 bf
       -0.14514936310314383 -0.07190754194716528
000380 8a 1d 73 14 43 13 b1 bf c8 5f b2 dd db 44 b7 3f
       -0.06670016526469716 0.0908944526912584
000390 2c 90 86 dc cb 4f 94 3f b7 a0 f0 6c 64 00 ab 3f
       0.01983564885598825 0.05273736791451838
0003a0 f0 f6 d4 2a 39 46 b2 bf 4f 51 82 6a 70 e5 bf 3f
       -0.0713840226717044 0.12459471321409875
0003b0 6b 8f 52 9c ad 57 9b 3f c6 b3 89 1c c7 51 b5 bf
       0.026701653162163035 -0.08327907988287028
0003c0 60 13 2b d3 37 07 95 bf b9 ba 9b f6 3c 0f c0 bf
       -0.020535347236335766 -0.12546503106519483
0003d0 97 d4 b8 35 66 8d bc bf 2f ae 40 4d 6b ef 84 bf
       -0.111532581439706 -0.010222280783714314
0003e0 0c 3b f0 66 d5 df a1 bf e6 03 75 2f 23 f6 c4 3f
       -0.03491083985874441 0.16376151864281424
0003f0 79 e5 08 b3 9e 60 97 3f 07 e1 d7 6c ef b7 b0 bf
       0.022829513242162734 -0.06530662925058915
000400 f5 32 88 3c 24 21 79 3f 83 c0 66 79 97 6f b3 3f
       0.006135121868749084 0.07592150415325886
000410 50 f0 69 69 a7 8e 9c bf 95 48 23 44 2d 33 bf bf
       -0.027887931641530195 -0.12187464631577634
000420 20 29 3e e2 a4 3c a3 3f f3 7b 4d e7 39 d6 c1 bf
       0.0375720525908767 -0.13935016435695466
000430 aa 85 71 7b 9d 0e 97 bf c2 35 15 b6 15 63 98 3f
       -0.02251668992938042 0.023815478552298826
000440 3b 0b 98 68 ac db ae bf 39 ae 01 f5 a9 b5 b4 3f
       -0.06026972557812945 0.0808969710503157
000450 2c df 91 e1 57 ac b5 bf 76 c3 71 73 c9 d7 c3 bf
       -0.08466099984240988 -0.15502279412205738
000460 af 28 68 eb 05 39 c1 3f 5c 30 52 c0 41 d8 ba bf
       0.13455270761943924 -0.10486231751764435
000470 6d 6d 91 3f d1 8f bb 3f b2 25 d0 ee 26 c1 86 3f
       0.1076632290072916 0.011110595858570747
000480 45 24 f3 7f a5 23 a9 bf f3 b9 13 54 0c 2a c5 bf
       -0.049100086087101626 -0.1653457079441548
000490 15 4d 27 07 be e1 90 3f bf ab 6d bb 75 5a a8 bf
       0.01648613852178212 -0.047565154199069586
0004a0 09 23 39 64 64 6d ba bf da b5 1d 55 38 39 ca bf
       -0.10323169180732007 -0.2048712173085921
0004b0 a7 d2 d0 85 fb ac 97 bf 1b c7 b5 0c dc eb 9f bf
       -0.02312081341024688 -0.03117317035270793
0004c0 62 db 0f 36 ff e0 9d 3f 65 e2 90 eb a4 50 c2 3f
       0.029178607630423577 0.14308606626743195
0004d0 f7 ab 92 88 6c 00 8a bf 54 cc bb a5 80 43 a8 3f
       -0.012696121137500056 0.04739000342478819
0004e0 1a 37 46 55 29 00 94 bf c4 d7 49 1d c2 5e b2 bf
       -0.019531865911225223 -0.07175839629220976
0004f0 9d 6e 7e fe e7 66 b7 bf a8 11 ba 21 64 56 c2 bf
       -0.09141397441129091 -0.14326144835298504
000500 5b f7 fd 60 22 1b ab bf 38 bd fd 0f 24 60 c1 3f
       -0.0529413932226663 0.13574648648089194
000510 3d 48 eb 39 ab 5f 93 bf f8 a2 6e a2 81 75 80 bf
       -0.01891963521013217 -0.008036625642334524
000520 c1 40 04 b4 25 18 c3 3f ec 71 1d 88 a6 9f a1 bf
       0.14917441644548116 -0.034421161761858915
000530 91 21 0b 71 88 ad 89 3f 33 54 99 69 d4 dd a5 3f
       0.012538019132436047 0.042708051577087146
000540 ba e7 64 9c 79 4e c2 3f a3 0c b6 49 42 26 c5 3f
       0.14301986824449192 0.16523007010628019
000550 8d d4 b9 7e f0 b9 96 3f 5f 76 98 ed 91 88 b3 3f
       0.022193677649245337 0.07630264330551871
000560 01 d9 fc 6e 47 e3 b6 3f 81 ad e2 8f 50 27 c1 bf
       0.08940550288830097 -0.13401228929192757
000570 80 7c 0e a2 9b 21 bc bf fa 84 a2 27 4c 4c c1 bf
       -0.1098878164907422 -0.1351409142999172
000580 5d bf 57 2a 56 de a8 bf ab 69 84 a9 c9 32 c1 bf
       -0.04857129351500931 -0.13436241891106468
000590 37 ee 9d a3 b1 2d b0 3f a4 de 42 93 f9 05 b0 3f
       0.06319723362496964 0.06259116978878382
0005a0 d0 96 3e 70 9b bd a7 3f f4 92 52 2f b7 e1 a4 bf
       0.04636846299335462 -0.04078457310359865
0005b0 2d f6 56 5f f6 03 c4 bf a3 69 64 c9 9f 72 a1 3f
       -0.15637092261560906 0.034077637990964214
0005c0 3a 56 80 b9 82 d5 a9 bf d3 fd c3 b7 b6 65 b8 3f
       -0.05045708193226202 0.09530202852692264
0005d0 ab 12 0e 64 3f 63 c3 3f e8 72 86 99 23 db bc 3f
       0.15146629701134393 0.11271879671262364
0005e0 46 4a de f2 75 98 87 3f 6c eb f7 8f ac 14 9f 3f
       0.011521264528515773 0.030352302825103747
0005f0 71 7b 99 15 aa 89 d1 3f 5e 0b c1 14 0f 3c c8 3f
       0.2740273676808363 0.18933285249121473
000600 84 4e b0 aa 66 b1 9d bf 1c b0 14 74 e4 1e ac 3f
       -0.028997043769847256 0.05492319027902701
000610 2d 60 88 c5 47 5a b2 bf 99 85 64 32 ed 1f c9 bf
       -0.07169006893707382 -0.1962868209894111
000620 ce b5 2f 26 16 9f ba 3f 74 9a f8 3e 1d 94 46 bf
       0.10398996765407917 -0.0006890433123246235
000630 32 5b ef ed 3d 67 9e 3f 1c 75 99 c0 06 04 be bf
       0.029690711638831142 -0.11724893762717098
000640 78 7b b3 07 59 25 82 bf 09 c4 cf ac 37 ac a0 3f
       -0.008860297725218777 0.03256391510502261
000650 57 6b 39 05 19 11 c0 bf d4 dd 85 94 b8 c7 b6 3f
       -0.1255217814931153 0.08898500085876232
000660 80 e4 08 af 2b a6 ba bf 0b 64 2a 7e 08 85 a2 bf
       -0.10409806273755073 -0.036171212578843
000670 a6 bf 21 c0 c1 57 ac bf 3c 69 bd 8d e9 c9 8b 3f
       -0.055357031539528465 0.013568710935648036
000680 56 90 5f a2 e4 41 bb 3f 8d a3 6d 3c c1 ee a3 bf
       0.10647419895355034 -0.03893092978143562
000690 6a 0f 3a ee 30 bc b2 3f 64 ce 25 4f 51 1b bd bf
       0.07318406883319786 -0.1136980837089197
0006a0 51 28 a9 8a df 8b a5 3f f4 a0 82 f0 fa 14 a1 bf
       0.04208277289997454 -0.03336319147030223
0006b0 68 9c d5 9b 1b 39 c2 3f c0 32 9f 8a 86 ba c4 bf
       0.14236779316999848 -0.16194230812688737
0006c0 4a 88 96 64 6e 6d c2 3f 63 f8 7e 36 ac c3 8f bf
       0.14396457587742112 -0.0155099348193028
0006d0 4f 12 b2 15 7f bf b9 3f c0 3c 54 c0 92 5a b8 bf
       0.1005782535522226 -0.09513203807385917
0006e0 11 9d 3d 69 79 7c 94 3f 27 ee e0 05 60 9d af 3f
       0.02000608162725565 0.06174755164871853
0006f0 60 84 36 fb 4f ff ba bf 32 58 a0 1a f6 f2 c2 3f
       -0.10545825846794932 0.14803959179033793
000700 a1 31 47 c3 80 3c b6 bf 7e 3a 70 f0 6c 1d c0 bf
       -0.0868607022050072 -0.12589799633174786
000710 57 f6 df 83 04 88 bb bf 45 48 4e d2 8f 71 b1 bf
       -0.10754421443558591 -0.06813906559389789
000720 f2 51 e9 c8 5f 33 b5 bf 47 c5 4c 0c 58 6d a0 3f
       -0.08281515746177329 0.03208422804017146
000730 a9 b4 26 23 a0 3a a5 3f c1 5a f3 0d d4 45 97 bf
       0.04146290234653211 -0.02272731146953322
000740 62 d5 3c 79 2d 0d b8 3f 68 bb 40 2d a3 d3 c2 3f
       0.09395107469466304 0.14708366117107663
000750 ba 6b d7 da d8 9d 74 3f 3b 46 25 4c e4 8a b4 bf
       0.005033347214943024 -0.08024432047866352
000760 e1 92 f7 d2 cc c4 bc bf 45 62 eb c5 96 04 94 3f
       -0.11237793112338636 0.01954875548367087
000770 01 0a 30 38 7f 04 94 3f 22 31 30 3b b4 e4 9a bf
       0.01954840450708595 -0.02626306163078696
000780 a8 0c 20 24 aa b5 af bf b3 79 45 87 92 40 b3 bf
       -0.06193286601048814 -0.0752040462734616
000790 eb 56 41 e4 4c 7a b7 bf 39 18 7a a1 2e 7f c6 3f
       -0.09170990536344063 0.1757562912427504
0007a0 1d f7 d7 fa 58 5e b8 3f 90 3a 33 7a 8d 74 ba bf
       0.09518962978469543 -0.10334095223809414
0007b0 03 8c d8 a4 2f e0 bf 3f 0c f8 3b bd 91 30 68 3f
       0.12451455854947828 0.002952847144000797
0007c0 03 4d fe 96 85 dc bd 3f 09 64 00 a0 f1 37 c7 bf
       0.11664614616738693 -0.1813947707421735
0007d0 14 80 99 3f 1f f2 b6 bf 76 be 8c 89 0a 76 b4 3f
       -0.0896319895050513 0.07992616518162685
0007e0 d9 4f f8 6d 9d 64 c5 3f 2c 2f 51 53 03 99 7a 3f
       0.1671330248797165 0.006493580808704807
0007f0 64 55 82 31 b3 5b b7 bf 4e d2 c4 7d 86 33 c5 3f
       -0.09124298056334151 0.16563492909485195
