weights/Layer3b.npy (npy, 1152 bytes, 1 tensors)

array f8 [1, 1, 1, 128]
00000000: ffbf b0d0 7bec 6cbf 0a7c b0a1 73ec 86bf
00000010: 6213 f333 9046 84bf 80db ddb9 d87d 703f
00000020: 6c4a b709 3c3a 6ebf 2339 c860 35d2 823f
00000030: cb6f 9187 6cfa 88bf 3e36 f6f7 4843 5e3f
00000040: e48b 35b8 89db 7f3f 6740 e765 8a5a 893f
00000050: 9683 ec5d 5696 54bf ac7c 0267 3cc3 7a3f
00000060: acdf 408c b554 8a3f 6bfd 5c90 7a0e 80bf
00000070: 920c 9aed 2240 733f 6135 98ba aa11 66bf
00000080: b83d eb59 b6a3 853f d3ac 1e93 d827 85bf
00000090: 20d0 28f6 e027 62bf 1dff 1662 f63d 893f
000000a0: 37b7 de27 dc04 84bf b2a1 5715 0d52 683f
000000b0: 4d90 91e8 d8df 77bf 6c12 050b 8824 54bf
000000c0: f06a bc27 43e0 45bf 60f6 835a d7fa 7a3f
000000d0: 19ed 5a2c 1548 763f 221c 6c1d 8cba 773f
000000e0: 72f2 6c17 838d 80bf 06cc da77 dd71 873f
000000f0: c8d3 010e e681 783f d162 981b 1254 543f
00000100: cb6f f38a 586a 82bf 5a47 2ff3 6b8d 783f
00000110: 1d34 4b12 8076 7a3f f658 6b97 0ba0 793f
00000120: b6e0 5ceb f24a 5e3f 188b bbff c7c1 853f
00000130: 7559 a5fe dd20 72bf 1601 173e e9d0 613f
00000140: b54f 3617 0686 743f 32eb 10ac 3d5d 8b3f
00000150: 23d1 8ad7 e15f 8a3f 7ae5 21d3 693e 813f
00000160: 994c 2980 2d6b 6e3f 355d 1309 d7fe 853f
00000170: cd53 1072 8e59 903f 8e2f 6789 1249 77bf
00000180: 6d42 77db a1cc 73bf 0029 f554 6a34 883f
00000190: 714f 891a b933 5dbf 92a6 06e1 269c 7bbf
000001a0: 8f90 3ebc 8c52 7b3f 8c66 7a94 db22 8a3f
000001b0: 2040 dd3b a3fb 723f d0ef db0d 98bd 6d3f
000001c0: 338b cdd4 a0ee 7a3f 5d9b c019 a06f 833f
000001d0: 8a37 539a 097c 68bf e93c 8e1d f4c5 883f
000001e0: c3e9 ff33 c125 793f 0000 0000 0000 0000
000001f0: 1f43 6b02 9575 7a3f f382 acd0 0a13 873f
00000200: d3d7 8760 8b72 533f a9d3 c4ce c047 54bf
00000210: 9c78 5e05 829e 8b3f 90bc 6b32 05cc 7ebf
00000220: c7c3 c2ff a824 823f 2fee fb92 0cc7 79bf
00000230: 62f8 e05c 78f7 813f 30c3 4462 cd6a 7b3f
00000240: 0138 1500 8521 733f 8764 778f a65f 693f
00000250: fc99 da9b 276e 83bf 08b5 7096 3cc3 4a3f
00000260: 8f51 2915 5c1c 803f c127 8f74 4355 82bf
00000270: abdd b906 d3c5 85bf 36d0 17bd 9578 7abf
00000280: a235 6323 f098 81bf 39a9 8638 ec53 84bf
00000290: 0000 0000 0000 0000 47ed ff6e bfb8 7ebf
000002a0: 58f7 0bc1 636c 8f3f e11f f2b2 5725 683f
000002b0: 4a4f 35f7 71fe 443f 9c26 078f 2189 91bf
000002c0: 5a04 5ac6 c1b6 4d3f 3243 225f 3d72 153f
000002d0: 9ae2 9239 58c3 7dbf 4e03 66ff 444f 74bf
000002e0: eabc 5f40 7ad1 5ebf 0000 0000 0000 0000
000002f0: 4b0b 0e0d df29 733f d09d 61b4 75a3 5bbf
00000300: 7c17 e943 ec66 893f 2e39 ded6 6cd8 30bf
00000310: 6793 4f3b d8b9 7dbf 4551 96bf 3f0e 79bf
00000320: aa5e 4e65 1df4 263f ade8 ad1d 3d6a 7abf
00000330: a127 e2d7 0fd8 7c3f 2155 2d63 417a 71bf
00000340: 4826 56be 6359 713f 4cf4 2bb6 c67d 503f
00000350: 7b1d 6e00 fabc 893f 1bd5 de55 18af 7ebf
00000360: 7451 6341 5b88 70bf 15f0 b1c7 32b5 5abf
00000370: ad76 1782 b5c1 723f c4ba 096e 3d1d 553f
00000380: 16c3 ada7 2d34 703f d68d 9aee 6c1b 6bbf
00000390: 5004 d155 4947 883f e4aa 1c1a fb11 713f
000003a0: d212 ed35 93c4 883f 9aa0 a014 cc9b 52bf
000003b0: c3ed 91b3 bdd4 7c3f 4952 1fb0 68e7 8abf
000003c0: baa5 079b dd9c 613f 3161 6f67 65c0 7f3f
000003d0: 0000 0000 0000 0000 65aa 5c10 e430 863f
000003e0: 0000 0000 0000 0000 8f77 763f ffba 733f
000003f0: e343 4d98 31ff 6ebf 7ba8 1ecb d1ab 73bf
-0.0035307329431120134 -0.011193183299893068 -0.009900213799832695 0.004026266656970701 -0.003689877759577789 0.009190003410392727 -0.012196395766458942 0.0018470966896048237
0.007777727095660023 0.012379723772852637 -0.0012565463472997466 0.0065338477581057645 0.012856882422155845 -0.007840116053215515 0.0046998371486807345 -0.0026939711140189647
0.010566162699801804 -0.010329906453839055 -0.0022162812977288976 0.012325215214218194 -0.009774894682631803 0.0029688125166453467 -0.0058287117945817314 -0.0012294128938076477
-0.0006676032930699998 0.0065868770836892965 0.005439837177330342 0.005793139766644225 -0.008082412865058706 0.011447649212049892 0.005983256007415734 0.0012407471498418374
-0.008991901150174805 0.005994245223478101 0.006460666922703443 0.006256146697259482 0.0018489238986614648 0.010623514644469575 -0.004425875822866456 0.0021748118894892128
0.005010627547921522 0.01336143666605025 0.012878193273856703 0.008419825320958852 0.0037132157024558185 0.01073997494169863 0.015966630660915904 -0.005684921654800846
-0.004833824400933479 0.011818724363042765 -0.0017823512699992295 -0.0067407149039496895 0.0066705224489035505 0.012761798351948593 0.004634511596876251 0.0036304445083015016
0.006575229880442279 0.009490252290630325 -0.002988833194286171 0.012096316482511376 0.006139521312429288 0.0 0.006459791248474982 0.011266788953038431
0.0011869774917818612 -0.0012378104102712484 0.013485923565721251 -0.007518787670718244 0.008858986191940489 -0.006293343656348634 0.008772793135104876 0.006693651467046632
0.004670638592257249 0.0030973675854793522 -0.00948744720819849 0.0008167310560388838 0.007866591831011486 -0.008951689715008261 -0.010631226198923501 -0.00646265498788883
-0.008592487411443642 -0.009925694918668003 0.0 -0.007500407969924189 0.015343455628222522 0.002947493826983547 0.0006406837914405353 -0.01712467608903144
0.0009067960897512037 8.181094725246972e-05 -0.007266373280054106 -0.004958409807273535 -0.0018809980260774913 0.0 0.004678603451682427 -0.0016869210681081832
0.012403341124023852 -0.00025704056940236114 -0.0072573133993259825 -0.0061171045466788575 0.00017512186846312577 -0.006448973402138386 0.007041990173215413 -0.004266982478687426
0.0042356392126606315 0.00100654988699424 0.012567475450636625 -0.007491202411917609 -0.004036289659968485 -0.0016301151179325447 0.0045792665636931575 0.001288709631036931
0.003956011142563628 -0.0033089759425182037 0.011854718142901316 0.004167538516223177 0.01209368713683415 -0.0011357777571081918 0.00703882314803245 -0.013136690020396762
0.002149994681748449 0.0077518426032486135 0.0 0.010835439442947245 0.0 0.0048170061703824004 -0.003783795228095675 -0.004802531724559351
