weights/Layer5w.npy (npy, 5248 bytes, 1 tensors)

array f8 [1, 1, 128, 5]
000000 81 ac fe ae 58 e0 be 3f cf 65 6e 8c dc 4e b1 bf
       0.12061075470289674 -0.06760958126542181
000010 62 18 1b 9a f8 c9 b3 bf 86 b7 b6 77 86 a0 ae bf
       -0.0773005844340289 -0.05981846057271327
000020 34 ab af 0a 72 0d a1 bf e3 0f 00 c0 97 56 ad bf
       -0.03330570583769657 -0.05730127543213805
000030 5b e1 d3 77 73 c1 9e 3f b2 43 04 f4 81 36 b3 3f
       0.030034832180690568 0.07505047042310656
000040 05 a9 33 e5 c0 61 d1 3f d4 9d 50 95 3d 64 ca bf
       0.2715913999842459 -0.206184099109335
000050 5f 48 60 40 b2 89 a3 bf 21 da 44 ac c7 f8 ac bf
       -0.03815991435853116 -0.0565855405606508
000060 37 e6 b0 d0 d7 7e a6 3f 3a 8a 28 23 a1 f8 96 bf
       0.04393648550508227 -0.02243282105531306
000070 73 34 d8 f2 9a 2f b8 3f 05 5b b9 9b fb 0f b7 bf
       0.09447639874288587 -0.09008762885910578
000080 93 66 86 3a 4f 82 ba bf e5 6a 97 b2 21 12 9d 3f
       -0.1035508649714763 0.028389479184492656
000090 f9 c9 bd 8a 28 ea b7 3f e5 7a ee a4 a7 12 90 bf
       0.09341672312965689 -0.0156961626449811
0000a0 86 72 5d fe b6 0b 52 3f c7 42 99 c7 0b d9 b7 3f
       0.001101425842953281 0.09315560935034305
0000b0 04 aa bf d9 ca 02 af bf c1 0a 92 f7 66 b8 ab 3f
       -0.0605681792074684 0.05414125225163025
0000c0 db d5 1f 9a 15 09 b3 bf 7c c2 1f 0c e6 3e 9e bf
       -0.07435736668397601 -0.029536814203256587
0000d0 54 70 15 3e 59 02 aa 3f 88 75 da e9 ab d9 c9 bf
       0.05079916842325419 -0.20195530813809293
0000e0 2b e6 41 09 31 bc a8 3f 3f d0 f6 db df 37 9a 3f
       0.04831078756337733 0.025603769112152227
0000f0 46 0b 3a eb ba 0c b6 bf fd 84 56 dd 67 17 c3 bf
       -0.08613174670067023 -0.14915178592222125
000100 81 e4 74 f3 8a 8c c3 3f dd d3 4f c1 b5 0d 82 bf
       0.1527265251877772 -0.00881521221342923
000110 32 a9 fe bb fe 73 b4 3f 48 b1 35 41 25 1d 84 3f
       0.07989494409290357 0.00982121567968676
000120 57 53 bb 27 63 cf b3 bf c2 46 74 69 0d d5 b7 bf
       -0.07738322944653696 -0.09309467148366493
000130 85 0e 24 1c 5d 18 a5 3f c4 96 76 93 89 64 ac 3f
       0.04120150536075776 0.055454539538272424
000140 30 3f cc 71 4c 89 ca bf c0 52 ff 1e 0a 72 91 3f
       -0.20731502110037914 0.0170365888041768
000150 89 08 5c 61 5f 18 c1 bf 02 79 05 af 83 1c be bf
       -0.13355629209405986 -0.1176225950525556
000160 b0 a2 92 0e 2c fb a6 bf 72 4c 87 2c de ac a2 bf
       -0.04488504102602542 -0.036475127158745915
000170 46 ae b7 7e 8b 28 95 bf 90 d3 d9 61 f0 d6 87 3f
       -0.02066247902796039 0.011640432344600687
000180 52 5c c2 6b 14 42 ab bf e6 ed 80 d5 03 1e ac 3f
       -0.05323852363033467 0.054916496097998466
000190 18 b7 73 16 d3 1e b3 bf 98 2e 97 45 e8 2c ac bf
       -0.07468909547943914 -0.05503011559957577
0001a0 b4 f2 60 50 e2 11 a4 bf 40 4e aa af bf b6 d1 bf
       -0.03919894438920349 -0.27677909998712735
0001b0 56 25 4a 0c 96 75 94 3f 7c 2d 89 76 64 32 c4 3f
       0.019979805469607946 0.15778785503276171
0001c0 e1 98 09 e4 b1 8c b5 3f 5e 8f 82 3e 06 1e bb bf
       0.08417808358499058 -0.10592688585398721
0001d0 7c d2 dc 18 2d e6 c5 bf 96 a5 91 4f 6b 03 b2 3f
       -0.17108691896432393 0.07036467259026433
0001e0 23 c2 07 cd a6 de c0 3f 7e 59 aa d4 06 e9 b3 3f
       0.13179478656049168 0.07777445499445965
0001f0 10 61 e3 4a 8a 52 ac 3f d9 07 cb c7 2e 4d cd bf
       0.05531723179018588 -0.22891793017885112
000200 50 97 83 54 06 e7 c0 bf 1d fc 97 77 1a e6 b2 3f
       -0.1320503151575232 0.07382359905021514
000210 a6 0e 87 a8 bf da 70 bf e5 0e c9 68 2a 19 c6 bf
       -0.004114864983822441 -0.17264299503778271
000220 9d 14 9e f4 32 ec b1 3f a1 a4 d1 de e2 87 54 bf
       0.07001036140543922 -0.0012531009226910766
000230 42 6b d5 5e 04 45 d2 bf 31 9f 5e db bd 10 af 3f
       -0.28546246777630213 0.060674603489415786
000240 08 ec 59 40 14 d8 b9 bf cf 23 e3 25 fe a0 c2 bf
       -0.10095335551334028 -0.14553810930217856
000250 74 fc 58 95 3d 49 8f bf 5e 01 5c 37 8d 5d b0 3f
       -0.015276414032199016 0.0639274845270896
000260 3c 3b a5 66 e7 1e 8a bf 4e c8 8b de cd f5 a0 bf
       -0.012754257030477605 -0.03312533704401287
000270 10 07 38 19 f8 bf 93 3f 04 b1 93 5c 52 f1 bf bf
       0.01928699163364117 -0.1247760272996779
000280 e6 93 ff 56 0c 97 b1 3f 61 c4 d4 c3 12 4e b3 bf
       0.06871106266005675 -0.07541005402596702
000290 ee 87 6e 30 53 2b ac bf f8 af b0 6b eb 5e bb 3f
       -0.055018043195801045 0.10691710833697232
0002a0 6d 0d 2d a1 dc 57 c8 3f e4 bc 04 8c 25 3c 85 3f
       0.19018133039399335 0.010368626914525732
0002b0 59 9b 23 f4 ff 7f bd 3f 7a 56 6d 83 25 3d 94 3f
       0.1152343722384165 0.019764505526231414
0002c0 46 33 27 d4 d2 3d 90 3f 19 b5 19 76 b5 f4 b5 bf
       0.01586083812599106 -0.08576521046935105
0002d0 03 7c c3 d3 23 f5 c0 3f a0 28 d5 2f 1b ed bc bf
       0.132481077575875 -0.11299295347012839
0002e0 b8 fa 90 9b 5c d1 ae bf 75 ed 82 4e be 28 c2 3f
       -0.060191053380994786 0.14186838944975091
0002f0 5a e3 d9 ff 8a 67 aa bf ef c3 9a e7 d5 04 b0 3f
       -0.05157122014219935 0.06257378487022412
000300 fe 08 54 44 6e ff 80 bf 18 37 e4 e0 4e ad b5 bf
       -0.008299695453847008 -0.08467572203172968
000310 ab 1b 1b cc 12 62 92 bf e6 ff 53 4b d4 5c b0 bf
       -0.01795224543345923 -0.06391646231713785
000320 10 10 81 4a df c6 ab 3f da a4 a3 07 03 20 ba 3f
       0.05425164970850471 0.10205096184258214
000330 e1 b2 3d 56 8f 39 85 bf 02 77 b6 5e be e2 bc 3f
       -0.010363693065039427 0.11283483326266366
000340 3d d3 d6 a8 55 11 79 bf e5 34 97 49 c9 74 c5 3f
       -0.00612004719498743 0.16762653439801692
000350 ed b4 a6 65 13 d2 c0 bf 2a 37 4e 28 b4 93 c0 bf
       -0.13141100371777928 -0.12950756042521877
000360 02 fb 55 d3 40 71 ae bf 60 82 0c 0f c4 65 a2 bf
       -0.05945780353339637 -0.035932661854762626
000370 8e af f2 3c 36 69 93 bf bf d1 dc 8c 5a 24 8a 3f
       -0.0189560389232351 0.012764651702675487
000380 c3 9d b4 46 77 7a 8c bf 08 c3 0c 99 8c 56 cc 3f
       -0.013905460210095982 0.22139127228867772
000390 a4 0d b8 5f 35 c1 c3 bf f9 bc 73 ca eb a1 c8 bf
       -0.15433375524308446 -0.19244143853527598
0003a0 4e 1b c6 b7 76 b1 91 3f 5a 1d e1 cf 61 19 8f bf
       0.017278532950082685 -0.015185131222223692
0003b0 8d 81 ee 25 fe f7 b5 bf f5 00 0b 6c fc 12 a9 bf
       -0.08581531930986426 -0.04897297686466288
0003c0 68 af 59 a2 b7 02 88 bf 26 0b ca de b5 81 b4 3f
       -0.01172393287853142 0.08010422410192727
0003d0 e1 c7 05 df 37 de c4 3f bf 8d f4 e0 23 8a 9f bf
       0.16303156270765753 -0.030800400357419152
0003e0 e6 a7 ed db 1c a6 bb bf 0e 9b 58 69 c5 90 6c 3f
       -0.10800342912048641 0.003487001008369523
0003f0 93 c6 9a 62 ff 6a a7 3f ea 0f c6 9d bb 83 ba bf
       0.04573820189160673 -0.10357258417030804
000400 33 2a 50 13 6b dc ab bf 2f 1c c7 4d c6 de b0 3f
       -0.05441603289371635 0.06589927100058966
000410 f4 90 61 11 4c da b1 bf 16 73 56 94 87 1c b5 3f
       -0.06973720001548483 0.08246657725835535
000420 a8 a0 89 7a 63 7c c5 bf 01 15 47 5b 50 6a 99 bf
       -0.16785853846818566 -0.024819617816111087
000430 82 3f e5 81 12 97 9e 3f 13 87 36 32 1f 1c be 3f
       0.0298731700689241 0.11761660552886281
000440 6b 58 1c 3d e0 cc ad bf f6 33 10 7b 8d 52 a4 3f
       -0.05820370431881446 0.03969232680547201
000450 63 09 d8 40 db e2 80 bf 35 7f 0f 12 21 ce a1 bf
       -0.008245194355372026 -0.03477576585259926
000460 bc 0f 41 46 87 b3 ba bf f1 7e b6 dc 7f a5 cb bf
       -0.10430188622655029 -0.2159881427478392
000470 70 5e b1 1b 1d 61 b9 bf 33 0e 3e ce e5 04 70 3f
       -0.09913808752150444 0.003910920789965955
000480 34 4f a4 a3 dc 4b 95 3f c5 c8 94 6f 3b f5 aa 3f
       0.02079720257559288 0.05265222298693709
000490 56 eb ed c9 f6 18 7b 3f 81 11 da e2 a8 67 a4 3f
       0.006615604418466278 0.03985336083590863
0004a0 84 3b 59 1a 14 39 a8 3f bf fd 56 59 02 d2 6e 3f
       0.04731047460210561 0.003762249553545621
0004b0 c6 71 e8 c0 a9 f3 c2 bf 32 cf d1 12 1b da b7 bf
       -0.1480610076840902 -0.09317177972280602
0004c0 b8 58 5f da 59 b8 9d 3f e0 b1 15 3a 94 88 65 3f
       0.02902355571117063 0.002628602510119857
0004d0 ba cf 61 b3 92 04 b5 bf 7e c5 08 7e c9 15 ae bf
       -0.0821010292000314 -0.05875997222427552
0004e0 0f 7d 7c 36 11 f6 c2 3f 19 ee de e4 34 34 b1 3f
       0.14813437614882516 0.06720285976091879
0004f0 5a 43 d6 52 12 11 bd bf a3 6a 15 48 1c ce b1 3f
       -0.11354174158465238 0.06955124626021329
000500 18 e6 65 b6 80 af c6 3f e4 9e 47 87 ac 82 aa bf
       0.17723091989664463 -0.05177821303715094
000510 a2 36 8a 8b d1 ea 9e bf 1c ad 2a 25 cd cf b2 bf
       -0.030192636625136722 -0.07348329694166406
000520 ff 49 0f 52 fd b7 c0 3f 0f 77 b8 15 5c 74 b5 bf
       0.13061491495916752 -0.08380675821578286
000530 90 97 77 16 83 d2 8b bf ea 54 6c 2a c4 40 89 3f
       -0.013585113642829133 0.012330563110973764
000540 8d b2 c6 76 f0 fb c4 bf c5 d9 4e 72 fb 8f 98 bf
       -0.16393857764832767 -0.02398674855404594
000550 df e5 f2 c9 ea 6a c7 3f b3 b6 fb b7 e1 6d ad 3f
       0.1829503522947524 0.0574789559449135
000560 ed a3 79 12 fe bf c4 bf 53 5f 92 2c c3 c5 c1 3f
       -0.16210914518458655 0.13884772945743382
000570 6e 42 dc 2c 72 8e a6 3f 67 41 0e 66 7d 54 9a bf
       0.04405552671062628 -0.025712928155884465
000580 a6 1d 01 63 60 4c a9 bf 13 72 78 eb de 7a c3 bf
       -0.04941083153294849 -0.15218721864302207
000590 d2 8c 71 c6 28 da ae bf f5 08 5b dc 0e 52 c1 bf
       -0.06025817320257833 -0.1353167129473786
0005a0 d1 03 5e a1 a1 c2 d1 bf 5f e6 0c 28 ca da cb 3f
       -0.2775043559886941 0.2176144309576555
0005b0 c8 5a 47 97 70 6f b2 bf 3d 04 94 03 38 bc c0 bf
       -0.07201293652847618 -0.13074398207393925
0005c0 73 a2 3b 38 43 d5 cb 3f d9 28 a4 03 13 fd a6 bf
       0.21744575734853164 -0.04489955348442871
0005d0 32 6b 4e 84 02 a0 ba bf 52 5f f0 41 bf 20 c1 3f
       -0.10400405626425593 0.13381186217952262
0005e0 67 63 3c ba d9 ce c7 bf 67 8a 3b 41 7b 64 b8 3f
       -0.18600007623242762 0.0952832254657011
0005f0 9d 34 f2 6b 3c fd 84 3f db 5c fb 76 a5 b1 be 3f
       0.010248634380582817 0.11989816813307945
000600 df a5 f3 bc a3 cd b0 bf 58 fd 71 e6 9a 37 b7 3f
       -0.0656378113086684 0.09069221616845391
000610 4b bf 62 ec 08 67 99 bf df 63 69 69 e4 49 b9 bf
       -0.024807109287109424 -0.09878375600364063
000620 75 b9 2d d7 69 b5 b7 3f 0c 2c 9d d3 8c 05 b3 3f
       0.09261189940818844 0.07430343786579402
000630 10 0a 98 9b 4d a1 9d 3f 47 70 c9 5c 3a 92 c1 3f
       0.02893563520593473 0.13727502375229703
000640 26 9c 35 3d 63 e5 92 3f 11 88 d5 dc 52 0f c2 3f
       0.018453169451643124 0.14109264166751292
000650 e8 84 da c9 32 dd b9 3f 63 01 3b f9 15 7d c9 bf
       0.10103146961275267 -0.19912981671769633
000660 92 b1 a2 55 46 12 ba 3f 47 9d f2 fd f5 8f a9 3f
       0.10184135046683299 0.0499264595503584
000670 e2 5f e4 76 ca 0e a5 3f f3 74 72 40 39 32 c6 bf
       0.04112847043342051 -0.17340770384627255
000680 3b 21 cd 3a fc e9 98 3f 7e e5 df d2 79 4f 8f bf
       0.024330082978196926 -0.015288306949502891
000690 96 f7 1c 03 7f d8 9b bf 50 19 f0 12 dd 87 92 3f
       -0.027193054738055965 0.018096403389813276
0006a0 11 43 be 78 39 95 d0 3f c4 fb b0 25 c6 05 a2 3f
       0.2591079405911368 0.03520030222033868
0006b0 fe b1 d5 04 cd 78 ac 3f a4 55 45 71 4c 0e 79 3f
       0.05560913738267813 0.006117151835800003
0006c0 c9 3e cc de e3 58 b4 bf b3 b7 a3 1d 0f ee a7 bf
       -0.07948135556602688 -0.04673812138376778
0006d0 7d 14 70 61 3f 5a cd 3f 38 1a 44 7c bd 73 a2 3f
       0.22931663758950896 0.036039277476494325
0006e0 e4 7a a3 82 cb da a5 bf 4b 7f c1 21 4b 7c bb bf
       -0.042684898087591155 -0.10736531805150411
0006f0 62 74 2c 8b 4c 2d 52 3f 6d 63 ac e1 ad 5f b5 3f
       0.0011094329353860334 0.08349119910816478
000700 42 aa d5 9a c5 10 90 3f 8b 37 42 99 89 59 ca 3f
       0.01568897969756678 0.20585746749241837
000710 c3 ba e2 58 98 2d bc bf 95 e0 48 3b d9 1d c4 3f
       -0.11007072610912431 0.15716090578803646
000720 dc a8 14 a5 cd 28 bf bf a6 b5 11 5c 43 a3 a3 3f
       -0.12171635895052496 0.03835497378245671
000730 f9 a4 c0 28 81 08 a7 bf 65 c7 bf ff ff ba a8 3f
       -0.04498675940005543 0.04830169674813937
000740 6a c1 6c b1 89 99 c6 bf 5f 6a 39 d4 f6 e0 ad bf
       -0.17656060374566646 -0.05835696545246515
000750 9c 14 d4 2c 0a 1f ac bf a5 f6 a2 98 3e 7e bb bf
       -0.054924314472409835 -0.10739508844832331
000760 9f 4b c4 44 61 77 a6 bf e4 b7 62 92 fa 27 b8 3f
       -0.04387954677999705 0.09436002801768911
000770 1b 97 ea 53 e8 a9 ad 3f e1 d7 33 5c 07 ae c2 bf
       0.057936916583726204 -0.14593593599391766
000780 b2 1e 34 f5 fb 80 ba 3f 37 b2 72 0b c0 be c2 bf
       0.1035306428567491 -0.146446233358249
000790 10 86 02 3c b6 d3 82 bf 62 85 ef 51 34 28 71 bf
       -0.009192870813708814 -0.0041887325050720976
0007a0 86 32 b6 42 9b ae b3 bf f0 88 b4 3e 30 c0 9c bf
       -0.0768830335493452 -0.028076890780661168
0007b0 9c 3d 58 88 b3 b2 c0 bf 75 4e 14 27 05 48 b2 3f
       -0.1304535308595235 0.07141143993458761
0007c0 4b 45 62 e6 10 6b c2 3f dc 81 9d 46 82 e3 ad 3f
       0.1438923954888572 0.05837638008120269
0007d0 1c bb 00 b6 36 89 84 bf 9c 17 c0 b8 5f b5 b5 bf
       -0.010027339391027783 -0.08479879627711145
0007e0 16 15 d5 83 ce 43 bf 3f 99 98 fb c4 4e af b4 bf
       0.12212839811862283 -0.08079998311186144
0007f0 60 95 ad 38 37 f7 c7 bf 1d d1 e6 db 0a 01 81 bf
       -0.18723192470057892 -0.00830276950441849
